CNN1/CNN8.pth (torch, 40270 bytes, 10 tensors)

conv1.weight f4 [3, 1, 3, 3]
0.049228422 -0.23885946 0.03054913 -0.13119008 -0.30172545 0.3305857 -0.11069471 -0.16358556
0.047454998 0.042353526 0.097499505 -0.21733381 -0.21062027 -0.08266121 0.17987622 -0.22981453
-0.24770834 -0.26068112 -0.039293893 0.49984157 0.73704267 0.849738 0.48830888 0.3780908
0.5124844 0.61733043 1.2824968
00000000: bea3 493d 9397 74be 2b42 fa3c b156 06be
00000010: c27b 9abe 8742 a93e e8b3 e2bd f982 27be
00000020: 2c60 423d e47a 2d3d d2ad c73d c18c 5ebe
00000030: d7ac 57be 484a a9bd 7931 383e 8054 6bbe
00000040: 41a7 7dbe ff77 85be a2f2 20bd 3ceb ff3e
00000050: d4ae 3c3f 6e88 593f 9f03 fa3e 1e95 c13e
00000060: 2d32 033f 5e09 1e3f db28 a43f

conv1.bias f4 [3]
0.01757123 -0.24014577 -0.06185519
00000000: 8af1 8f3c c6e8 75be de5b 7dbd

conv2.weight f4 [9, 3, 3, 3]
0.17253791 -0.141939 0.16851334 -0.02663581 0.16237625 -0.027013922 -0.025012014 -0.17837046
0.07282243 -0.14060196 0.16106254 0.03602471 0.12039701 0.029442646 0.082190335 0.18309383
-0.08186107 -0.115382284 -0.068792954 0.1672048 0.19879636 0.1718398 0.40937972 -0.07251136
0.42880398 0.24542886 -0.100329734 0.067292646 -0.17976514 -0.124709465 -0.13014306 0.083071224
-0.06542267 0.11852848 -0.0993918 0.008563523 -0.003011183 0.09385646 0.021991102 0.08576032
-0.060715243 0.11783327 0.17672898 -0.1428752 0.15506291 -0.17670617 -0.14385308 -0.13290045
0.164797 0.03587559 0.07948446 -0.050120335 0.046201736 -0.16032684 0.12951596 -0.18108943
-0.0536759 0.103595406 0.14741375 0.09694289 -0.043532208 0.02722563 -0.022246629 -0.18592522
-0.0054201027 -0.13618271 0.0067484197 -0.006840532 0.10597901 0.17236465 -0.08138072 -0.15089363
0.08242087 -0.1152625 0.037715875 0.1003743 -0.059968796 -0.18388523 -0.14356217 -0.017670799
0.12641747 0.04511523 -0.09198065 0.033450183 -0.011186496 -0.043000888 0.16997944 -0.08987263
-0.14789812 0.056663375 -0.025797725 -0.09086012 0.06988974 0.12255676 -0.1249204 -0.07090047
0.06803043 -0.15364748 0.15247019 -0.18449798 -0.15027498 -0.012009582 0.022382347 -0.13127193
-0.08623372 0.116483256 -0.18638183 -0.18614362 0.14451724 0.1769312 0.12597297 0.065098405
0.20983331 0.07516923 0.09331797 0.1275604 -0.06725338 -0.13554859 -0.078259684 -0.10317922
-0.0617975 0.055146575 -0.030158805 0.035165876 -0.090750225 -0.14838624 -0.13409194 -0.036813106
0.026116285 0.121436305 -0.110069975 0.15594427 -0.031942043 0.30583277 0.34093943 -0.14433628
0.10441472 -0.0061082426 -0.033824675 0.19456339 -0.18156 -0.007376072 0.10508188 -0.17505576
0.09046219 -0.06652043 -0.12654786 0.06720768 0.076536134 -0.010238764 -0.06788511 -0.06864903
-0.119011864 -0.17364696 0.21033612 0.060212996 -0.107010245 -0.09153349 -0.0017208209 -0.06492829
0.18525125 0.008745132 -0.13623771 0.084347285 0.050439812 -0.13249938 0.13807036 -0.1126513
0.19107231 0.15795307 -0.060784087 -0.12483696 0.08863137 -0.020632654 -0.090173185 -0.0055081556
0.18481427 -0.052743383 0.028939266 0.14674203 0.583349 0.5886403 0.34919497 0.45381656
0.37762642 0.111114725 0.24944177 0.00026246454 0.010385041 0.21124187 0.080441035 0.012758557
-0.16545136 -0.0700378 0.07790204 0.19238222 -0.17838235 0.021763574 -0.07953975 0.1419933
0.12781094 -0.020481853 -0.14840434 -0.023559928 -0.12823421 -0.16700156 0.12694924 0.42703104
0.35446537 0.44777918 0.2471233 0.5673883 0.7049589 0.2249477 0.31669965 0.3463493
-0.068142384 -0.03266285 0.030645404 -0.03358729 0.09389014 0.015545559 -0.07129062 0.10436061
0.11360642 0.08732793 -0.0010548049 0.100247234 0.10725738 0.0021975304 -0.17734751 -0.010455695
-0.18458307 0.0823925 0.31366175 -0.108957246 -0.10270927 0.3194326 -0.03163984 0.015515361
0.24049285 0.18686603 0.36557224
00000000: c7ad 303e 7558 11be c38e 2c3e 5833 dabc
00000010: f645 263e 4d4c ddbc ffe5 ccbc bfa6 36be
00000020: ed23 953d f6f9 0fbe 94ed 243e a58e 133d
00000030: b592 f63d b431 f13c 6853 a83d f37c 3b3e
00000040: c7a6 a7bd 8c4d ecbd 52e3 8cbd bc37 2b3e
00000050: 4691 4b3e c6f6 2f3e 389a d13e d680 94bd
00000060: 328c db3e b451 7b3e ad79 cdbd bad0 893d
00000070: 5a14 38be ad67 ffbd 3944 05be 3f21 aa3d
00000080: 52fc 85bd 0fbf f23d ee8d cbbd 054e 0c3c
00000090: 4557 45bb d137 c03d af26 b43c 1ba3 af3d
000000a0: 8cb0 78bd 9252 f13d 71f8 343e e04d 12be
000000b0: d0c8 1e3e 76f2 34be 394e 13be 0e17 08be
000000c0: 8bc0 283e 48f2 123d c0c8 a23d fb4a 4dbd
000000d0: 083e 3d3d b82c 24be d59f 043e 826f 39be
000000e0: 43db 5bbd d429 d43d a1f3 163e fe89 c63d
000000f0: d44e 32bd 4908 df3c 903e b6bc 2e63 3ebe
00000100: 1e9b b1bb 7b73 0bbe d921 dd3b 8b26 e0bb
00000110: 860b d93d 5c80 303e efaa a6bd dc83 1abe
00000120: 46cc a83d bf0e ecbd f67b 1a3d 0a91 cd3d
00000130: d7a1 75bd 694c 3cbe f601 13be 5ac2 90bc
00000140: 9573 013e bfca 383d 5a60 bcbd 0f03 093d
00000150: 9147 37bc b321 30bd 170f 2e3e 240f b8bd
00000160: 9b72 17be db17 683d c055 d3bc df14 babd
00000170: 5a22 8f3d 0aff fa3d 44d6 ffbd 4434 91bd
00000180: 8a53 8b3d c455 1dbe 2521 1c3e 0aed 3cbe
00000190: afe1 19be d6c3 44bc 2f5b b73c 266c 06be
000001a0: 4e9b b0bd c68e ee3d e1da 3ebe 6f9c 3ebe
000001b0: 54fc 133e 742d 353e 0fff 003e 5052 853d
000001c0: 8bde 563e 53f2 993d 7e1d bf3d 329f 023e
000001d0: 24bc 89bd 40cd 0abe 9d46 a0bd a04f d3bd
000001e0: 601f 7dbd 60e1 613d 990f f7bc 180a 103d
000001f0: 41db b9bd 90f2 17be 664f 09be 57c9 16bd
00000200: d2f1 d53c 99b3 f83d 5e6c e1bd dbaf 1f3e
00000210: a9d5 02bd 1d96 9c3e 9d8f ae3e e4cc 13be
00000220: 62d7 d53d a727 c8bb be8b 0abd a03b 473e
00000230: ddea 39be fab2 f1bb 2b35 d73d d141 33be
00000240: 3e44 b93d dd3b 88bd c395 01be 2ea4 893d
00000250: fabe 9c3d 7dc0 27bc 5907 8bbd dd97 8cbd
00000260: 7ebc f3bd 82d0 31be 5a62 573e e7a1 763d
00000270: 3028 dbbd e975 bbbd 2b8d e1ba 20f9 84bd
00000280: 81b2 3d3e be47 0f3c e681 0bbe 45be ac3d
00000290: fa99 4e3d ebad 07be 5162 0d3e bab5 e6bd
000002a0: 76a8 433e 73be 213e bcf8 78bd 85aa ffbd
000002b0: 5d84 b53d d005 a9bc b8ac b8bd c27d b4bb
000002c0: f43f 3d3e 7209 58bd 0a12 ed3c 8b43 163e
000002d0: 5c56 153f 21b1 163f afc9 b23e a55a e83e
000002e0: 4058 c13e 1e90 e33d aa6d 7f3e 659b 8939
000002f0: 0526 2a3c ca4f 583e 45be a43d 4409 513c
00000300: 156c 29be fa6f 8fbd 1b8b 9f3d d8ff 443e
00000310: dda9 36be 8649 b23c bde5 a2bd b166 113e
00000320: dfe0 023e 8fc9 a7bc 4ff7 17be c000 c1bc
00000330: d44f 03be 7502 2bbe fbfe 013e d0a3 da3e
00000340: 7c7c b53e 5043 e53e e40d 7d3e 5c40 113f
00000350: 3078 343f b158 663e 7526 a23e b254 b13e
00000360: 3c8e 8bbd 7bc9 05bd 120c fb3c d492 09bd
00000370: 7949 c03d cdb2 7e3c d100 92bd 04bb d53d
00000380: 7caa e83d fcd8 b23d 6141 8aba 6c4e cd3d
00000390: c2a9 db3d 7104 103b 969a 35be 5d4e 2bbc
000003a0: 5803 3dbe 66bd a83d 4698 a03e fa24 dfbd
000003b0: 3d59 d2bd ab8c a33e c798 01bd 2434 7e3c
000003c0: c243 763e cf59 3f3e 492c bb3e

conv2.bias f4 [9]
-0.104701355 0.21989062 -0.1728692 -0.066329494 -0.006586603 -0.035518106 -0.051093306 -0.091978475
-0.06325482
00000000: aa6d d6bd 022b 613e a004 31be c2d7 87bd
00000010: 6ed4 d7bb 6f7b 11bd 3747 51bd 365f bcbd
00000020: be8b 81bd

fc1.weight f4 [25, 324]
-0.022476872 -0.024526678 0.026859904 0.058709934 5.0577968e-05 0.007792751 -0.025273275 0.03162661
0.030460773 0.04952717 -0.0036205596 -0.10416871 0.021586731 0.027266376 -0.027704546 -0.0030661572
-0.07531154 0.0046006665 -0.008370442 0.0495155 0.044014838 0.04137275 -0.041450337 -0.09444412
-0.025009345 -0.051249173 0.036541846 0.0334628 0.040630147 -0.03532078 -0.009187252 0.025777424
0.09392028 0.09990865 0.0022653237 -0.06043977 0.02971916 0.0026529164 0.03804288 -0.0072435206
0.04153735 -0.0043855645 -0.00784507 -0.035682645 0.052236874 0.008160047 0.009310934 -0.0021496057
-0.010766077 0.06223691 0.025975438 0.021980006 0.0027250228 0.053881384 0.031631 -0.032577712
0.05003416 0.05282015 -0.02961124 0.06855798 0.026356118 0.021569854 -0.009941335 0.010058284
0.026931077 0.029440058 -0.0372245 0.004721926 -0.04923087 0.032946464 0.014542577 0.039441947
-0.019020407 -0.012658714 -0.036029857 0.053038783 -0.026101168 0.03403484 0.0014191646 -0.03138788
-0.0266808 0.047627218 -0.0022014563 -0.044096865 -0.032958217 -0.050408456 -0.030659933 0.0017771276
0.050331187 0.03509223 0.032379627 0.05119212 -0.028649468 -0.036746394 0.054400105 -0.040152095
0.014348596 -0.037154138 0.018924115 -0.0057925736 -0.016499415 0.054741636 -0.05455953 0.011467826
0.050526503 -0.022095557 -0.03074757 0.02355127 0.041372575 0.018787503 -0.03364558 0.020501172
-0.006726572 -0.0006796738 -0.043500196 -0.011572625 0.032740403 -0.050050378 -0.013278542 0.048263006
0.04474968 -0.042792704 -0.012273234 -0.044299155 -0.024734052 -0.012698444 -0.047826603 0.02416253
-0.041042343 0.019903611 -0.05332722 0.050734166 -0.016339771 -0.017405871 -0.034877427 -0.031795584
0.023427555 0.030812662 0.04909015 -0.028995514 -0.019490857 0.028595734 -0.043765716 0.020838734
-0.00045378387 -0.0057019778 -0.03514531 0.00078518613 -0.056495305 0.021944428 -0.04656296 -0.04243816
-0.0066486853 -0.021367326 -0.036487717 0.0004392371 0.021467827 0.04865793 0.0631857 0.059220552
0.021930348 0.013488332 0.017567476 0.0310379 0.048717003 0.018055364 -0.019614387 -0.058525924
0.026463037 0.07418228 0.0053994427 0.044796016 -0.009556601 -0.037224207 -0.03432222 0.072428375
0.001410209 -0.013286802 -0.034313776 0.05152808 0.022297235 0.032881185 0.016929245 0.0022872195
0.0038324003 0.038427234 0.02889893 -0.024548838 -0.034421425 -0.01600157 -0.05729691 -0.036625788
-0.021373445 -0.036654472 0.037498754 -0.030337848 -0.009769013 0.01749781 -0.010321575 0.044674557
0.00892672 0.0072198473 0.0376045 -0.07086263 -0.011381455 0.00821393 0.04024359 0.010914154
-0.060259428 0.0010189528 -0.058074035 0.00034777302 -0.034513094 -0.0095503675 0.04863006 -0.012923093
-0.028405307 0.000757699 -0.0038361223 -0.0055106613 -0.010763365 -0.056133818 -0.06817995 -0.038298413
0.03434605 0.021188546 -0.063750856 -0.06479241 -0.016013494 0.03359285 -0.02320619 0.015348775
-0.03156471 -0.10286951 0.009907667 -0.029245155 0.08577717 0.097907476 0.016128698 -0.048925355
-0.08226395 0.07915961 0.12623857 0.14397316 0.028665895 -0.116109505 -0.05854637 0.049757283
0.16562508 0.13508339 0.013845483 -0.041840117 0.02289648 0.00029170097 0.014824468 -0.03208456
00000000: 6b21 b8bc 2cec c8bc 4d09 dc3c d479 703d
00000010: ae23 5438 555a ff3b e609 cfbc e78a 013d
00000020: df88 f93c 00dd 4a3d e946 6dbb 6856 d5bd
00000030: a8d6 b03c bc5d df3c a5f4 e2bc 95f1 48bb
00000040: f03c 9abd 30c1 963b 2e24 09bc c4d0 4a3d
00000050: e748 343d 7976 293d d4c7 29bd eb6b c1bd
00000060: 66e0 ccbc a7ea 51bd e7ac 153d 4a10 093d
00000070: cc6b 263d 86ac 10bd 2186 16bc 2d2b d33c
00000080: 4759 c03d e89c cc3d d375 143b b18f 77bd
00000090: 9975 f33c 8ddc 2d3b dad2 1b3d 0e5b edbb
000000a0: 1123 2a3d c8b4 8fbb 9c88 00bc f727 12bd
000000b0: 55f6 553d b8b1 053c e38c 183c 66e0 0cbb
000000c0: 3364 30bc 21ec 7e3d 71ca d43c 6a0f b43c
000000d0: 4c96 323b bab2 5c3d 828f 013d 3570 05bd
000000e0: 9ff0 4c3d f159 583d 4593 f2bc 2068 8c3d
000000f0: c9e8 d73c 43b3 b03c fbe0 22bc 80cb 243c
00000100: 909e dc3c 472c f13c b878 18bd 63ba 9a3b
00000110: 4fa6 49bd dff2 063d fd43 6e3c e18d 213d
00000120: afd0 9bbc 7f66 4fbc 0b94 13bd 323f 593d
00000130: 1ed2 d5bc 1e68 0b3d 4303 ba3a 9490 00bd
00000140: b191 dabc c214 433d 4f46 10bb ea9e 34bd
00000150: 32ff 06bd 1979 4ebd 8a2a fbbc 82ee e83a
00000160: 1328 4e3d dfbc 0f3d 80a0 043d d4ae 513d
00000170: 4ab2 eabc 6383 16bd a5d2 5e3d 8676 24bd
00000180: 6016 6b3c f02e 18bd bf06 9b3c a1cf bdbb
00000190: c829 87bc c438 603d d079 5fbd 8ce3 3b3c
000001a0: e1f4 4e3d be01 b5bc 54e2 fbbc 98ee c03c
000001b0: 4a76 293d 40e8 993c f3cf 09bd 13f2 a73c
000001c0: 936a dcbb 232c 32ba 432d 32bd 1b9b 3dbc
000001d0: cd1a 063d a001 4dbd 3e8e 59bc 6eaf 453d
000001e0: 714b 373d 6747 2fbd ad15 49bc 0873 35bd
000001f0: 119f cabc 220d 50bc d4e5 43bd 80f0 c53c
00000200: 041c 28bd e60c a33c a56d 5abd a1ce 4f3d
00000210: fcda 85bc c296 8ebc a2db 0ebd 163c 02bd
00000220: 25eb bf3c d66a fc3c c112 493d 0088 edbc
00000230: 4aab 9fbc 9a41 ea3c ae43 33bd feb5 aa3c
00000240: d7e9 edb9 a8d7 babb 87f4 0fbd f3d4 4d3a
00000250: 9f67 67bd cdc4 b33c cdb8 3ebd a3d3 2dbd
00000260: 37dd d9bb 880a afbc 2574 15bd 6849 e639
00000270: 4cdd af3c 8a4d 473d 8167 813d 4091 723d
00000280: 46a7 b33c 2afe 5c3c abe9 8f3c 3243 fe3c
00000290: 7b8b 473d d8e8 933c 5aae a0bc e1b8 6fbd
000002a0: 03c9 d83c e1ec 973d cfed b03b 077c 373d
000002b0: 4a93 1cbc 6978 18bd 7595 0cbd 5455 943d
000002c0: c3d6 b83a e3b0 59bc 9a8c 0cbd 1c0f 533d
000002d0: b1a8 b63c 6cae 063d 33af 8a3c 2de5 153b
000002e0: 0229 7b3b e065 1d3d 73bd ec3c a51a c9bc
000002f0: 7bfd 0cbd b915 83bc 2ab0 6abd ec04 16bd
00000300: 5d17 afbc 0023 16bd 4b98 193d 1487 f8bc
00000310: 360e 20bc 9157 8f3c d31b 29bc abfc 363d
00000320: 6141 123c 7894 ec3b 2d07 1a3d 6d20 91bd
00000330: 4879 3abc b893 063c 76d6 243d 48d1 323c
00000340: 97d2 76bd 628e 853a 0adf 6dbd 4e55 b639
00000350: 9a5d 0dbd 2579 1cbc 5030 473d 61bb 53bc
00000360: 3fb2 e8bc 52a0 463a 7467 7bbb c792 b4bb
00000370: d358 30bc 93ec 65bd eea1 8bbd ccde 1cbd
00000380: 72ae 0c3d 9a93 ad3c cf8f 82bd e2b1 84bd
00000390: bb2e 83bc a898 093d e81a bebc 6e79 7b3c
000003a0: ff49 01bd 40ad d2bd c453 223c 8993 efbc
000003b0: f1ab af3d b783 c83d 5520 843c f465 48bd
000003c0: 007a a8bd 6f1e a23d af44 013e b36d 133e
000003d0: bdd4 ea3c d2ca edbd 52ce 6fbd 4bce 4b3d
000003e0: 9f99 293e 4d53 0a3e 2ad8 623c 8b60 2bbd
000003f0: 6691 bb3c 71ef 9839 53e2 723c 196b 03bd

fc1.bias f4 [25]
0.084575385 0.07568814 0.07030179 -0.0060529793 0.009503122 -0.014527905 -0.04744907 -0.03814757
0.04984642 0.05359479 0.12263115 0.049356204 0.0035858334 -0.034381095 0.014455594 0.05444346
-0.00018521819 0.042103462 0.02590362 -0.023128685 0.067466445 0.026249638 0.012756979 -0.029269578
-0.036278743
00000000: dc35 ad3d 6202 9b3d 63fa 8f3d 1258 c6bb
00000010: fcb2 1b3c 7306 6ebc f559 42bd a040 1cbd
00000020: c22b 4c3d 3686 5b3d 0a26 fb3d bb29 4a3d
00000030: 4d00 6b3b 31d3 0cbd 28d7 6c3c 1b00 5f3d
00000040: 2137 42b9 ae74 2c3d d433 d43c 5e78 bdbc
00000050: d92b 8a3d 7b09 d73c a602 513c c1c6 efbc
00000060: 0599 14bd

fc2.weight f4 [25, 25]
-0.0050126757 -0.038505517 -0.0066179484 0.082566746 -0.07408904 0.07521252 0.14461051 -0.17412817
0.055494998 0.15946436 -0.03688669 -0.0817804 -0.14471972 0.016063472 0.010049163 -0.1551579
-0.13857907 0.03150774 -0.17370202 0.06762786 0.037093446 -0.082588576 -0.19407648 0.061723966
-0.19690585 -0.18337621 0.11611432 -0.19030282 -0.16003224 -0.17959757 -0.14617698 0.08895985
0.19254638 -0.19701613 0.24365832 -0.22466739 -0.19337107 -0.10560159 -0.0074148774 0.24414705
-0.072819956 -0.09284914 0.15409389 0.29873392 0.19494253 0.04021419 -0.18789093 -0.054748893
-0.19560558 -0.13278992 -0.14096543 -0.05805005 -0.043953568 0.13203625 0.06159796 -0.12777919
0.15636437 0.027637094 -0.036804922 -0.12922722 0.013902267 0.17747135 0.15848301 -0.024967765
-0.23926081 -0.1489564 -0.032551292 0.102695934 0.08523507 -0.15875344 -0.017562302 -0.1861701
-0.07175129 -0.1276086 0.08370502 -0.066078074 0.28997436 0.12761788 -0.10080198 -0.15537019
-0.00740065 -0.17669775 -0.15630598 0.10585675 -0.19110829 -0.20737468 -0.103288144 0.045338698
0.1903776 0.017672664 0.22895487 -0.00754197 -0.024079612 -0.01197984 -0.05616879 0.20938353
0.05646168 -0.17077318 -0.040392835 -0.1238035 -0.09410221 0.15274468 0.048607044 -0.092913106
0.039286897 -0.18613106 -0.097442746 0.10961403 -0.14547913 -0.18738925 0.05638288 -0.110764675
-0.15696439 -0.120044276 0.14357471 -0.17333716 0.031102933 0.01850069 -0.17983355 -0.1578173
-0.01148005 0.11053471 -0.18554737 0.11082216 0.04798785 -0.031734698 -0.017057512 -0.15050158
-0.14438629 -0.11605237 -0.10344181 -0.059156764 0.12831534 -0.12607838 0.15765151 -0.27896914
-0.022030836 -0.15154234 0.1402323 0.16074213 -0.03183694 0.14198647 -0.008741449 0.330385
0.13270077 0.2908468 0.033165812 -0.157545 0.09307282 0.125638 0.27325806 -0.20592384
0.13887706 -0.14267714 -0.19854932 -0.020364627 -0.14100003 -0.0880629 -0.007692518 0.16264698
0.5731168 -0.15353172 -0.0898002 -0.039684977 0.07424603 0.06565429 0.18479262 -0.12644123
0.11937004 0.17108272 0.031711265 -0.15050612 0.022747913 -0.10940471 0.057509027 0.16050266
0.24823923 0.534546 0.13945015 0.12276712 0.083222955 -0.037427787 -0.13394898 0.09402688
-0.13668439 0.10039253 0.07828069 0.019426404 -0.20841241 -0.38304693 0.34529004 0.106880344
-0.061541248 -0.23884973 0.037051346 -0.27505445 0.107109845 -0.0640614 -0.0002260873 -0.17195316
-0.12047286 -0.19424717 0.11041705 0.1849806 -0.13732877 -0.03911843 -0.00056256505 -0.07546236
0.09860044 -0.011884165 -0.025589205 0.04366142 -0.047705077 -0.1403097 0.036490534 -0.1726874
0.15119222 -0.15864801 0.28627697 0.109793425 -0.13480817 -0.16735327 -0.19034666 0.13617311
0.027119571 0.16278769 -0.04032272 -0.0522339 -0.039251916 -0.18708853 -0.07062621 0.18163274
0.07376728 -0.007856961 -0.1967304 0.15987009 0.11513537 0.054972645 -0.1874915 -0.1498751
0.19489072 -0.08791997 0.009683063 -0.06529256 0.16639414 0.1614237 0.051408567 -0.17335044
0.18716516 -0.07400351 -0.05655142 -0.10582714 -0.19390112 -0.03391982 -0.19259863 -0.08939711
00000000: 5f41 a4bb f6b7 1dbd 60db d8bb c118 a93d
00000010: ffbb 97bd 0609 9a3d c714 143e a84e 32be
00000020: b94e 633d a04a 233e 7f16 17bd 7b7c a7bd
00000030: 6831 14be 8b97 833c 3fa5 243c b6e1 1ebe
00000040: ace7 0dbe 430e 013d f1de 31be 7a80 8a3d
00000050: 4cef 173d 3324 a9bd fcbb 46be 45d2 7c3d
00000060: b0a1 49be f9c6 3bbe 58cd ed3d bede 42be
00000070: 7edf 23be 6de8 37be 6baf 15be 9530 b63d
00000080: e12a 453e 99be 49be 9181 793e 350f 66be
00000090: 1103 46be a545 d8bd 80f8 f2bb af01 7a3e
000000a0: a122 95bd b127 bebd caca 1d3e a7f3 983e
000000b0: 049f 473e a2b7 243d 7b66 40be 6040 60bd
000000c0: d44c 48be 15fa 07be 3e59 10be e4c5 6dbd
000000d0: a808 34bd 8334 073e 244e 7c3d 8cd8 02be
000000e0: fb1d 203e 3067 e23c c2c0 16bd 2454 04be
000000f0: 56c6 633c 0dbb 353e 5f49 223e 3389 ccbc
00000100: c900 75be 0788 18be 8154 05bd 3f52 d23d
00000110: b98f ae3d 4390 22be d1de 8fbc 60a3 3ebe
00000120: 57f2 92bd d4ab 02be 8a6d ab3d f153 87bd
00000130: 8577 943e 43ae 023e 4571 cebd 5d19 1fbe
00000140: 2781 f2bb 41f0 34be ad0e 20be 6ccb d83d
00000150: e4b1 43be 075a 54be bc88 d3bd 12b5 393d
00000160: 58f2 423e 43c6 903c 2573 6a3e a122 f7bb
00000170: 9b42 c5bc 1747 44bc 3f11 66bd a368 563e
00000180: 5d44 673d 2adf 2ebe f572 25bd b08c fdbd
00000190: a9b8 c0bd 1a69 1c3e 2e18 473d 3a49 bebd
000001a0: 4ceb 203d 2499 3ebe 1090 c7bd 527d e03d
000001b0: 7bf8 14be f8e2 3fbe bcf1 663d 97d8 e2bd
000001c0: 46bb 20be c6d9 f5bd 4005 133e 4c7f 31be
000001d0: 94cb fe3c c28e 973c 4926 38be dc9a 21be
000001e0: d216 3cbc 0660 e23d 2100 3ebe bbf6 e23d
000001f0: e88e 443d 3efc 01bd 32bc 8bbc 161d 1abe
00000200: 00da 13be ddac edbd 4dd9 d3bd 5d4e 72bd
00000210: 1965 033e b11a 01be 666f 213e 0bd5 8ebe
00000220: 037a b4bc ea2d 1bbe 0e99 0f3e 9699 243e
00000230: 7467 02bd e764 113e 4b38 0fbc 3928 a93e
00000240: b6e2 073e dfe9 943e e0d8 073d 7a53 21be
00000250: f69c be3d 3fa7 003e 7be8 8b3e b3dd 52be
00000260: ca35 0e3e f519 12be 8350 4bbe b8d3 a6bc
00000270: 5062 10be 525a b4bd 8511 fcbb ee8c 263e
00000280: c8b7 123f 6b37 1dbe 2be9 b7bd b78c 22bd
00000290: 4d0e 983d c275 863d 473a 3d3e cf79 01be
000002a0: 4878 f43d 4f30 2f3e ace3 013d 471e 1abe
000002b0: d559 ba3c 940f e0bd 968e 6b3d cf5a 243e
000002c0: 6d32 7e3e 02d8 083f 05cc 0e3e 546d fb3d
000002d0: cc70 aa3d e14d 19bd ec29 09be 2a91 c03d
000002e0: fef6 0bbe 999a cd3d a051 a03d 1f24 9f3c
000002f0: 106a 55be ba1e c4be dbc9 b03e 15e4 da3d
00000300: ad12 7cbd 0695 74be 27c3 173d f0d3 8cbe
00000310: 685c db3d a032 83bd d911 6db9 7d14 30be
00000320: 7aba f6bd bbe8 46be 5622 e23d 8e6b 3d3e
00000330: ea9f 0cbe a63a 20bd 1a79 13ba 038c 9abd
00000340: 07ef c93d cdb5 42bc 74a0 d1bc 51d6 323d
00000350: 6666 43bd 59ad 0fbe 1977 153d f7d4 30be
00000360: 22d2 1a3e a074 22be e592 923e 60db e03d
00000370: 270b 0abe a85e 2bbe 3cea 42be f770 0b3e
00000380: dd29 de3c d1b1 263e 7029 25bd 37f3 55bd
00000390: 9ec6 20bd 2394 3fbe 79a4 90bd effd 393e
000003a0: 4d13 973d 7cba 00bc b273 49be fcb4 233e
000003b0: 18cc eb3d ff2a 613d c6fd 3fbe dc78 19be
000003c0: 6f91 473e 630f b4bd b6a5 1e3c 1bb8 85bd
000003d0: 3a63 2a3e 414c 253e ca91 523d c782 31be
000003e0: 39a8 3f3e 278f 97bd 76a2 67bd e6bb d8bd
000003f0: 048e 46be 82ef 0abd 9338 45be d515 b7bd

fc2.bias f4 [25]
0.07889979 0.22609147 0.15598209 0.111807056 0.03474409 -0.031903494 0.37745944 0.25703475
0.068997376 0.0062526087 -0.16774079 0.20917544 0.06715983 -0.12850153 -0.08017217 -0.06273333
-0.115289666 0.08688661 -0.10665195 -0.13329658 0.23262623 -0.11179209 -0.19084728 -0.11132956
0.36347276
00000000: 3796 a13d 8684 673e c5b9 1f3e 19fb e43d
00000010: d24f 0e3d 3dad 02bd 5d42 c13e 0f9a 833e
00000020: 7f4e 8d3d afe2 cc3b 3ec4 2bbe 1632 563e
00000030: 188b 893d e895 03be 4f31 a4bd 557a 80bd
00000040: fd1c ecbd 9bf1 b13d 566c dabd e67e 08be
00000050: 9235 6e3e 40f3 e4bd 786d 43be c100 e4bd
00000060: 1a19 ba3e

fc3.weight f4 [6, 25]
-0.047701076 -0.24852814 -0.17202036 0.11626974 0.18572326 -0.20923182 -0.30635735 0.28956464
-0.0689376 -0.10406744 -0.17085065 0.1560571 0.48337942 0.05353112 0.18692686 -0.3250413
0.17570847 0.24020402 0.17703298 0.05853441 0.0074872207 -0.21421374 -0.09239609 -0.17384186
-0.27069017 0.109565385 0.23161532 0.18836881 -0.24286105 0.029602822 0.055365644 -0.43488848
-0.3889823 0.13510457 0.060847435 -0.05535197 -0.22780569 0.3812007 -0.098283626 0.5212283
0.0071120434 0.10096703 -0.25596082 -0.017623939 -0.15766412 0.101600274 -0.0263134 0.090697184
0.020549387 -0.14643466 0.01914933 -0.48283976 0.17453666 -0.19248013 0.120225646 0.05951871
0.18037547 0.61057055 -0.116523616 -0.038447678 -0.116228856 0.26252803 -0.27427405 0.17721787
-0.11205976 -0.26190943 -0.23321556 0.50597227 -0.11192599 0.10979712 0.048620112 0.17940044
0.14094286 0.16680731 0.12769909 0.04685534 -0.06597012 0.04260866 0.1697438 0.17597114
-0.1667715 -0.10319529 0.040788468 -0.19244169 -0.16046101 -0.15545538 0.10144808 -0.20631123
-0.23525725 -0.22477303 -0.34977162 0.089941494 -0.24273427 -0.0074277497 0.00050846854 0.5943556
0.098961 -0.14917909 0.003859073 0.6035511 -0.10257617 0.4491132 -0.10335482 -0.15214753
0.1397609 0.4417988 0.2864751 -0.3207434 0.27526847 -0.17158979 0.042159572 0.051972453
-0.09592933 -0.20587279 -0.3673173 0.084948756 0.15061323 -0.30294394 -0.0215414 0.4540964
-0.3368618 0.12583332 -0.1180719 -0.14570029 -0.22308429 0.028409624 0.037458904 0.13239035
-0.20962232 -0.08431772 -0.16999078 0.6434685 -0.13177979 0.0716611 -0.07961854 0.08689094
0.13403852 -0.3265767 -0.051795907 0.27990407 0.47371078 -0.16375507 -0.29996514 0.08312369
-0.20492956 -0.40328172 -0.11509629 0.07360447 -0.15633173 0.09041616
00000000: 3462 43bd 297e 7ebe 1b26 30be d41e ee3d
00000010: 3d2e 3e3e de40 56be dfda 9cbe d141 943e
00000020: 282f 8dbd 4f21 d5bd 79f3 2ebe 6fcd 1f3e
00000030: 827d f73e 7343 5b3d c169 3f3e d06b a6be
00000040: ecec 333e 0bf8 753e 2248 353e c7c1 6f3d
00000050: 5c57 f53b d95a 5bbe 293a bdbd 9a03 32be
00000060: e797 8abe d163 e03d 912c 6d3e c1e3 403e
00000070: 91b0 78be 9e81 f23c 16c7 623d b4a9 debe
00000080: b028 c7be da58 0a3e 293b 793d bfb8 62bd
00000090: e545 69be bd2c c33e ed48 c9bd 386f 053f
000000a0: 250c e93b cdc7 ce3d 4c0d 83be 1460 90bc
000000b0: b472 21be ce13 d03d 338f d7bc 72bf b93d
000000c0: 3057 a83c f8f2 15be 0edf 9c3c c636 f7be
000000d0: bdb9 323e 8319 45be dd38 f63d e4c9 733d
000000e0: 59b4 383e 5a4e 1c3f efa3 eebd 507b 1dbd
000000f0: 6509 eebd 136a 863e a66d 8cbe 9a78 353e
00000100: 967f e5bd fe18 86be 0fd0 6ebe 6687 013f
00000110: 7439 e5bd 50dd e03d e225 473d c0b4 373e
00000120: 5353 103e 89cf 2a3e 8dc3 023e 63eb 3f3d
00000130: 581b 87bd 6b86 2e3d 52d1 2d3e c731 343e
00000140: 26c6 2abe 0d58 d3bd cf11 273d 6f0f 45be
00000150: e44f 24be b22f 1fbe 03c4 cf3d 4043 53be
00000160: 47e7 70be e72a 66be 4415 b3be 3f33 b83d
00000170: 558f 78be 7b64 f3bb bf4a 053a b027 183f
00000180: 11ac ca3d 67c2 18be 80e8 7c3b 5382 1a3f
00000190: 7413 d2bd 2af2 e53e b1ab d3bd 90cc 1bbe
000001a0: 7b1d 0f3e 7433 e23e ddac 923e 7b38 a4be
000001b0: fdef 8c3e 3cb5 2fbe 84af 2c3d 11e1 543d
000001c0: 9976 c4bd 51d0 52be 0311 bcbe 9df9 ad3d
000001d0: 5b3a 1a3e 781b 9bbe 9777 b0bc 537f e83e
000001e0: 2679 acbe 73da 003e aecf f1bd 7532 15be
000001f0: 3570 64be 4dbb e83c 826e 193d 5691 073e
00000200: 3ca7 56be c5ae acbd 1012 2ebe 5aba 243f
00000210: 48f1 06be 0ec3 923d 0c0f a3bd e1f3 b13d
00000220: 6541 093e 1035 a7be f227 54bd 964f 8f3e
00000230: 388a f23e 69af 27be 0895 99be c13c aa3d
00000240: 0ed9 51be f17a cebe 9bb7 ebbd f1bd 963d
00000250: 6d15 20be 1c2c b93d

fc3.bias f4 [6]
-0.22159418 0.019629883 -0.13800094 0.13237515 0.27906445 0.26563886
00000000: 96e9 62be d9ce a03c 1e50 0dbe 5a8d 073e
00000010: 89e1 8e3e d101 883e
